LadderLeNet(
  (conv1): Ladder2D()
  (bn1): BatchNorm2d(6, eps=1e-05, momentum=0.1, affine=True, track_running_stats=True)
  (conv2): Ladder2D()
  (bn2): BatchNorm2d(16, eps=1e-05, momentum=0.1, affine=True, track_running_stats=True)
  (fc1): Linear(in_features=400, out_features=120, bias=True)
  (fc2): Linear(in_features=120, out_features=84, bias=True)
  (fc3): Linear(in_features=84, out_features=10, bias=True)
)
LadderLeNet(
  (conv1): Ladder2D()
  (bn1): BatchNorm2d(6, eps=1e-05, momentum=0.1, affine=True, track_running_stats=True)
  (conv2): Ladder2D()
  (bn2): BatchNorm2d(16, eps=1e-05, momentum=0.1, affine=True, track_running_stats=True)
  (fc1): Linear(in_features=400, out_features=120, bias=True)
  (fc2): Linear(in_features=120, out_features=84, bias=True)
  (fc3): Linear(in_features=84, out_features=10, bias=True)
)
LadderLeNet(
  (conv1): Ladder2D()
  (bn1): BatchNorm2d(6, eps=1e-05, momentum=0.1, affine=True, track_running_stats=True)
  (conv2): Ladder2D()
  (bn2): BatchNorm2d(16, eps=1e-05, momentum=0.1, affine=True, track_running_stats=True)
  (fc1): Linear(in_features=400, out_features=120, bias=True)
  (fc2): Linear(in_features=120, out_features=84, bias=True)
  (fc3): Linear(in_features=84, out_features=10, bias=True)
)
Train - Epoch 1, Batch: 0, Loss: 2.312478
Train - Epoch 1, Batch: 10, Loss: 1.277659
Train - Epoch 1, Batch: 20, Loss: 0.977851
Train - Epoch 1, Batch: 30, Loss: 0.737525
Train - Epoch 1, Batch: 40, Loss: 0.694726
Train - Epoch 1, Batch: 50, Loss: 0.553314
Train - Epoch 1, Batch: 60, Loss: 0.648775
Train - Epoch 1, Batch: 70, Loss: 0.503107
Train - Epoch 1, Batch: 80, Loss: 0.363854
…
Train - Epoch 1, Batch: 110, Loss: 0.320492
Train - Epoch 1, Batch: 120, Loss: 0.312043
Train - Epoch 1, Batch: 130, Loss: 0.292964
Train - Epoch 1, Batch: 140, Loss: 0.348304
Train - Epoch 1, Batch: 150, Loss: 0.291094
Train - Epoch 1, Batch: 160, Loss: 0.266268
Train - Epoch 1, Batch: 170, Loss: 0.360951
Train - Epoch 1, Batch: 180, Loss: 0.242986
Train - Epoch 1, Batch: 190, Loss: 0.348027
Train - Epoch 1, Batch: 200, Loss: 0.249847
Train - Epoch 1, Batch: 210, Loss: 0.245221
Train - Epoch 1, Batch: 220, Loss: 0.345364
Train - Epoch 1, Batch: 230, Loss: 0.299508
LadderLeNet(
  (conv1): Ladder2D()
  (bn1): BatchNorm2d(6, eps=1e-05, momentum=0.1, affine=True, track_running_stats=True)
  (conv2): Ladder2D()
  (bn2): BatchNorm2d(16, eps=1e-05, momentum=0.1, affine=True, track_running_stats=True)
  (fc1): Linear(in_features=400, out_features=120, bias=True)
  (fc2): Linear(in_features=120, out_features=84, bias=True)
  (fc3): Linear(in_features=84, out_features=10, bias=True)
)
LadderLeNet(
  (conv1): Ladder2D()
  (bn1): BatchNorm2d(6, eps=1e-05, momentum=0.1, affine=True, track_running_stats=True)
  (conv2): Ladder2D()
  (bn2): BatchNorm2d(16, eps=1e-05, momentum=0.1, affine=True, track_running_stats=True)
  (fc1): Linear(in_features=400, out_features=120, bias=True)
  (fc2): Linear(in_features=120, out_features=84, bias=True)
  (fc3): Linear(in_features=84, out_features=10, bias=True)
)
Test Avg. Loss: 0.000979, Accuracy: 0.926000
LadderLeNet(
  (conv1): Ladder2D()
  (bn1): BatchNorm2d(6, eps=1e-05, momentum=0.1, affine=True, track_running_stats=True)
  (conv2): Ladder2D()
  (bn2): BatchNorm2d(16, eps=1e-05, momentum=0.1, affine=True, track_running_stats=True)
  (fc1): Linear(in_features=400, out_features=120, bias=True)
  (fc2): Linear(in_features=120, out_features=84, bias=True)
  (fc3): Linear(in_features=84, out_features=10, bias=True)
)
LadderLeNet(
  (conv1): Ladder2D()
  (bn1): BatchNorm2d(6, eps=1e-05, momentum=0.1, affine=True, track_running_stats=True)
  (conv2): Ladder2D()
  (bn2): BatchNorm2d(16, eps=1e-05, momentum=0.1, affine=True, track_running_stats=True)
  (fc1): Linear(in_features=400, out_features=120, bias=True)
  (fc2): Linear(in_features=120, out_features=84, bias=True)
  (fc3): Linear(in_features=84, out_features=10, bias=True)
)
Train - Epoch 2, Batch: 0, Loss: 0.232206
Train - Epoch 2, Batch: 10, Loss: 0.243665
Train - Epoch 2, Batch: 20, Loss: 0.227937
Train - Epoch 2, Batch: 30, Loss: 0.197913
Train - Epoch 2, Batch: 40, Loss: 0.294478
Train - Epoch 2, Batch: 50, Loss: 0.231950
Train - Epoch 2, Batch: 60, Loss: 0.232220
Train - Epoch 2, Batch: 70, Loss: 0.300551
Train - Epoch 2, Batch: 80, Loss: 0.188631
…
Train - Epoch 49, Batch: 110, Loss: 0.011987
Train - Epoch 49, Batch: 120, Loss: 0.013420
Train - Epoch 49, Batch: 130, Loss: 0.015338
Train - Epoch 49, Batch: 140, Loss: 0.018538
Train - Epoch 49, Batch: 150, Loss: 0.021971
Train - Epoch 49, Batch: 160, Loss: 0.011867
Train - Epoch 49, Batch: 170, Loss: 0.012408
Train - Epoch 49, Batch: 180, Loss: 0.021915
Train - Epoch 49, Batch: 190, Loss: 0.021716
Train - Epoch 49, Batch: 200, Loss: 0.025202
Train - Epoch 49, Batch: 210, Loss: 0.023093
Train - Epoch 49, Batch: 220, Loss: 0.026185
Train - Epoch 49, Batch: 230, Loss: 0.020535
LadderLeNet(
  (conv1): Ladder2D()
  (bn1): BatchNorm2d(6, eps=1e-05, momentum=0.1, affine=True, track_running_stats=True)
  (conv2): Ladder2D()
  (bn2): BatchNorm2d(16, eps=1e-05, momentum=0.1, affine=True, track_running_stats=True)
  (fc1): Linear(in_features=400, out_features=120, bias=True)
  (fc2): Linear(in_features=120, out_features=84, bias=True)
  (fc3): Linear(in_features=84, out_features=10, bias=True)
)
LadderLeNet(
  (conv1): Ladder2D()
  (bn1): BatchNorm2d(6, eps=1e-05, momentum=0.1, affine=True, track_running_stats=True)
  (conv2): Ladder2D()
  (bn2): BatchNorm2d(16, eps=1e-05, momentum=0.1, affine=True, track_running_stats=True)
  (fc1): Linear(in_features=400, out_features=120, bias=True)
  (fc2): Linear(in_features=120, out_features=84, bias=True)
  (fc3): Linear(in_features=84, out_features=10, bias=True)
)
Test Avg. Loss: 0.000421, Accuracy: 0.968200
